week1/NetSquared_checkpoint.pth.tar (torch, 252409 bytes, 34 tensors)

conv1.weight f4 [32, 3, 3, 3]
00000000: acb3 77be 441d 2c3f 1ea4 553f 3905 98bd
00000010: c3c7 2dbf 2966 75bf b69a f03e 786b 65be
00000020: db9a f3be 13a4 76bd 6954 9e3f 82f5 c33f
00000030: 1ed2 553e 7ecd 66bf 35d7 87bf f34c 0cbd
00000040: 38c1 69bf 414d 73bf cf4a 353f f377 ec3f
00000050: 2b7b 0940 0c27 fa3e 8189 2ebf d02c 3dbf
00000060: 9c3f a1be e42e a8bf f3ec a3bf d14b 68be
00000070: 8039 c63d c809 42bc cfd9 01be 84a7 1e3e
00000080: a032 bd3d 392c 603e 2737 703e 3202 b13d
00000090: 795f 7ebe 31e8 93be 54ba 0fbe 0b5c 01be
000000a0: 7275 eabe a8f8 3bbe dab3 84be a5c3 f2bd
000000b0: 367c 11be dbd3 cb3d 88a9 653d 7611 f13d
000000c0: fa88 163d 5500 243e 2c93 b73c e744 8b3e
000000d0: e845 423d f130 81bb 7e12 313f 69cd 29be
000000e0: 2ae4 83bf 0601 5c3f 9452 7ebe 231f 8abf
000000f0: 86d0 433f 2812 3e3c fc2e 60bf 8680 c03f
00000100: 6888 0e3e 3d85 80bf bf3a aa3f 6c07 043e
00000110: 4695 cabf 38f1 813f 12f2 083e ca2b 8bbf
00000120: cae0 523f e617 593d 329f 54bf 02fb 5f3f
00000130: 347b 9d3d 4581 5bbf 0bde 6c3f fbf5 02bd
00000140: 884f 58bf aaad 653f bc84 873d 0c66 4abf
00000150: 78c9 663f ac0c fbbd efab 8cbf 0b5c 3a3f
00000160: 08a6 7e3b de26 66bf 49b9 a53f f392 5abb
00000170: 081e aebf 1be9 9a3f 0ae7 8dbd 6046 c3bf
00000180: 57c5 8b3f be46 21be b9bb a0bf f064 533f
00000190: 689a e7bd 3be0 43bf c200 683f 2608 8c3d
000001a0: 7a5c 87bf 964d 343f 451f 453e 2ec2 2abf
000001b0: 8e57 aebf e93c a9bf b881 80bf 881a 4a3d
000001c0: baae 51be 8aba 0fbe 4277 8f3f 9ba8 853f
000001d0: 2eff 693f 12c5 b1bf 7ba3 bbbf 566a 67bf
000001e0: 93b2 ba3e 1fc2 953e 9b25 a43e 5fdb a53f
000001f0: 5f27 a33f 5fca c93f 66d3 9fbf f6a3 82bf
00000200: 4bfc 12bf 4dfd 893d f0dd 59be 23e5 f53c
00000210: cadc 373f 09d5 383f c429 403f d2c8 64bf
00000220: 021f b8bd 16eb 693f 63c6 3dbf 6b31 a93e
00000230: 6f25 c13f e267 c93e 00b4 853f 658b ca3f
00000240: 986f 13c0 5360 a0bf 83b8 c5be 2071 05c0
00000250: 53fd 21bf fecd bd3e 13f7 62bf 4270 efbc
00000260: bb78 c53e d9fa 74bf 9c15 73be 2f28 c33e
00000270: 6810 21bf c2a2 a33e 8fe5 913f ce15 e33e
00000280: be66 8b3f 97eb c23f 093b cb3b bb8b ae3d
00000290: ddff d43e 9d1e 2f3d e17f 883e 76bc c93e
000002a0: 8287 d13e a255 ea3e 46d2 283f 3d63 00bf
000002b0: 48a6 b8be 7140 9dbe 2bee 51bf 8141 5bbf
000002c0: 4e2b 1fbf 3fd5 7bbf 95e2 8bbf 96f8 4cbf
000002d0: 4747 4a3f 2cfb 343f cfea 093f c0eb 2bbe
000002e0: 85f0 20bf 1670 e7be 94f0 2ebf 10ae 75bf
000002f0: 2b50 3dbf 6a58 c7be 0f96 afbf ec5f 5f3f
00000300: 37ff 38bf 515a 843f a7b0 3abf a557 573f
00000310: 27c8 cf3e 1296 35bf fa95 d1bd 1c17 93bf
00000320: 2bb3 ec3f 255c 71be 7b47 df3f 6ea0 43be
00000330: 87ca c93f fd60 1c3f 680f 27be ad1f 08bf
00000340: 86d6 f0bf 6f01 773f 6ee2 89bf fb77 853f
00000350: 85a2 a2bf 3dc7 e53e b153 d0be 79f8 a7bf
00000360: e299 0fbf 64d0 9a3d 81b9 68bd 36ae 91bd
00000370: 9b63 423f 2e1c 913e bf6b ae3e 5142 573f
00000380: a54d 013f 15fe 02c0 efd6 10bf e798 91bf
00000390: 4b5f acbf 14f9 c63e 94ca b3be b8d5 dcbe
000003a0: 3871 1a3f 45a4 8fbe df50 5ebd 5d2e 0d3f
000003b0: c2d2 8e3e ddde b03e d795 b83f 7fc0 5d3f
000003c0: caad 973f 53aa 0c40 71fe 903f a148 b9bd
000003d0: 335d 033f 3a18 103e 43e0 9abf 0610 f8be
000003e0: 00f8 393e 9602 e43b 7e8e a23d ff11 ae3d
000003f0: 8c76 933f 26ea c13f 4120 bc3f 74ac 3bbf
-0.24189633 0.67232156 0.8345355 -0.07422871 -0.6788294 -0.9585901 0.46993035 -0.22404277
-0.47579083 -0.060215067 1.236951 1.5309298 0.20880935 -0.90157306 -1.0612551 -0.034253072
-0.91310453 -0.95039755 0.70817274 1.8474106 2.1481426 0.48857915 -0.68178564 -0.73896503
-0.31493843 -1.313931 -1.2806686 -0.22685172 0.09678936 -0.011843152 -0.12680744 0.1549359
0.092381716 0.2189187 0.23458539 0.08642997 -0.24841107 -0.28888085 -0.14035922 -0.12632768
-0.4579273 -0.18356574 -0.25918466 -0.118537225 -0.14207539 0.099525176 0.05606988 0.117709085
0.036751725 0.16015752 0.022409044 0.27201006 0.04742995 -0.003942602 0.6916884 -0.16582264
-1.0304005 0.8593906 -0.24836189 -1.0790752 0.76490057 0.0116010085 -0.8757169 1.5039222
0.13919222 -1.0040661 1.3299178 0.12893456 -1.5826805 1.0151739 0.13373592 -1.0872738
0.8237425 0.053001307 -0.8305541 0.8749238 0.07689515 -0.85744125 0.9252631 -0.031972867
-0.84496355 0.89718115 0.06617114 -0.7906196 0.90151167 -0.12258276 -1.098997 0.72796696
0.0038856287 -0.89903057 1.294717 -0.0033351749 -1.3602915 1.2102388 -0.06928833 -1.5255852
1.0919598 -0.15749642 -1.2557288 0.82575893 -0.113087475 -0.76514024 0.90626156 0.06837492
-1.0575097 0.70430887 0.1925021 -0.66702545 -1.362047 -1.3221713 -1.0039587 0.04934171
-0.20476809 -0.14036003 1.120827 1.0442079 0.91405 -1.3888266 -1.4659265 -0.9039663
0.36464366 0.29249665 0.3205994 1.2957572 1.274639 1.5764884 -1.2486389 -1.0206287
-0.5741622 0.067377664 -0.21276069 0.030016487 0.7182127 0.72200066 0.7506373 -0.8936893
-0.08990289 0.9137434 -0.7413084 0.33045515 1.5089549 0.3933707 1.0445557 1.582379
-2.3036861 -1.2529396 -0.38617334 -2.0850296 -0.6327717 0.37071222 -0.88658255 -0.029228333
0.38568673 -0.95695263 -0.23738712 0.38116595 -0.6291566 0.31960112 1.1398181 0.44352573
1.089073 1.5228146 0.006202106 0.08522745 0.41601458 0.042753804 0.26660064 0.39401597
0.40923697 0.45768458 0.6594585 -0.50151426 -0.36064363 -0.30713227 -0.8200404 -0.85646826
-0.6217545 -0.9837226 -1.0928522 -0.8006681 0.7901501 0.7069576 0.53873914 -0.1678915
-0.62867004 -0.45202702 -0.68335843 -0.95968723 -0.7395045 -0.38934642 -1.3717669 0.8725574
-0.72264427 1.0340062 -0.729258 0.8411811 0.40582392 -0.70932114 -0.10233684 -1.1491427
1.8492178 -0.23570307 1.7443689 -0.19104168 1.5764931 0.6108549 -0.16314471 -0.53173333
-1.8815467 0.9648656 -1.0772226 1.042724 -1.2705847 0.4487857 -0.4068885 -1.3122703
-0.5609418 0.075592786 -0.056817535 -0.07113306 0.75933236 0.28341812 0.3406658 0.84085566
0.505091 -2.046758 -0.5657796 -1.1374787 -1.3466581 0.38861907 -0.35115492 -0.43131804
0.6032901 -0.28055015 -0.054276343 0.5514887 0.2789517 0.3454503 1.4420727 0.8662185
1.1849911 2.1978958 1.1327649 -0.09047056 0.51314086 0.14071742 -1.2099689 -0.48449725
0.1816101 0.006958316 0.079373345 0.08499526 1.1520553 1.5149581 1.4697343 -0.7331002

conv1.bias f4 [32]
00000000: b06b edbf 9449 8ec0 2d7f 913f 8c11 933f
00000010: dea0 95bf 6fb6 6e3f d0c0 65c0 4d29 22bf
00000020: e864 90c0 8119 61bf 359a d5bf 20d8 99bf
00000030: 5467 80c0 39cc 093f 53dd b5bf a158 bebf
00000040: f1a2 67bf 9925 f3be f045 64c0 b0fc d3bf
00000050: 55da 933f 3d60 b6c0 4095 7bbf ff69 a8c0
00000060: 1ea3 b7bf fa0d 54c0 b92e f2be 6649 b53e
00000070: db3c 0cc0 479a 6ac0 9d48 a9c0 8912 54c0
-1.8548489 -4.4464817 1.1366936 1.148973 -1.1689718 0.9324712 -3.5898933 -0.6334427
-4.5123177 -0.8792954 -1.6687685 -1.2019081 -4.0126133 0.53827244 -1.4208168 -1.4870797
-0.90483004 -0.47489622 -3.5667686 -1.6561489 1.1551005 -5.699248 -0.9827461 -5.262939
-1.4346654 -3.313353 -0.47301272 0.3540756 -2.1912143 -3.6656663 -5.290114 -3.3136313

conv2.weight f4 [64, 32, 3, 3]
00000000: 94a0 2abf 5997 2cbf 0076 eabe 8739 173d
00000010: 28cf 113f 1f1c 813e 77b4 22be bcec b93d
00000020: f851 483e 10a2 21c0 f186 28c0 7ca1 28c0
00000030: 3140 0cc0 8c8f 07c0 11b7 0fc0 2bd6 36bf
00000040: 794a 26bf 21c1 51bf 9c14 7f3f 750e 733f
00000050: 1ee5 733f e319 4c3f 5d45 783f 1cec 263f
00000060: 3955 cd3c 03bf 143f 37aa 89bd 9c47 8a3f
00000070: 947b 833f 57cf 863f 62fe 5e3f 53b9 8c3f
00000080: 8a0d 3d3f 55f5 d5bd c336 243f c4d4 77be
00000090: 8573 33bf a823 76bf d4f8 afbf c2b0 073e
000000a0: 9be9 58bc bfbc 353e 8ef0 d53d efa2 7ebf
000000b0: 2844 9f3d ef70 d1be d6b2 2cbf a407 a9be
000000c0: 868c 08be c277 cbbc 9f9b 5a3d cdae 81be
000000d0: 44c8 30bf c591 c5bd fed7 8fbf 1b6b 7dbf
000000e0: 6988 92bf 4cf8 823e 597e e23e 769d b83e
000000f0: 028e db3f 40bc d73f 33b5 c03f dbbb eebf
00000100: 3e18 b4bf 2664 c7bf 6fd4 8cbf 1220 4a3e
00000110: 8b02 5cbf 5a6d 1dbf 4570 403f a14a e3be
00000120: 9709 e5bf 0b8f 01c0 c3f4 04c0 372b cfbf
00000130: 784a dcbf e74a e6bf 5699 67bf 094a 0ebf
00000140: 5526 b63d 665b 06c0 b681 05c0 694a f4bf
00000150: ac57 c2bd 921f a63e 01f1 463f efaf d03e
00000160: 8035 c9be 7d0d 713c 5e47 11bf 8bd4 92bf
00000170: 28c5 81bf 7640 85bf 8f6d 5fbe e37c b5bf
00000180: 8f35 e5bf 3475 bfbd 30e4 99bf 2c06 41bf
00000190: 76a9 a7bf c473 88bd f57b 80bf d14c 0cbe
000001a0: f4e8 b5bf df1e debe bab4 99be bd8e aebf
000001b0: e054 10bf 7926 29bf 2103 42bf 804d a4bf
000001c0: 67ec 8fbf 1579 9bbf d3a8 75bf 5777 e1be
000001d0: 4691 46bf e061 f0bd 64b3 c7be 02ab e5be
000001e0: 219c c1bd 39e6 a2be c9cd febc f0f1 10bf
000001f0: fb5c 69bf 6beb bebe c5da cabe ba10 88bf
00000200: 0f28 78bf 3197 4bbf c715 153e a2c5 45bf
00000210: b8ef 5dbf 42db ce3e a6fb 15bf 108a 353e
00000220: fad3 283d aa2f 57bd 27ae 073f 7308 353f
00000230: a61e 3b3f 3c18 66bf 1611 26bf 9da6 58bf
00000240: 5be5 cbbe d80f b7be 8720 36bf 45dd abbf
00000250: 5f11 623f e559 03c0 70cb 0ec0 d336 a83f
00000260: 8644 1ac0 d607 2f3e 9f40 0e3f 4525 323f
00000270: f6e5 613f a16f bc3f b975 b03f 59fe 09be
00000280: 7033 e1be 2313 bebe 4964 d23d c039 e3bd
00000290: 0a79 4a3f aafa b3bf bdb0 89bf 74e0 cbbf
000002a0: 198e 523d c18d 14bc 2cab f2be 47aa c43c
000002b0: 6e4b c6bc bec2 46be 8cd1 ce3e d256 e13e
000002c0: c74e b43e 0871 413d b969 dd3d ba81 bd3d
000002d0: b8a7 1dbf 4b61 d1be 0365 9abe dce9 0cc0
000002e0: cb38 01c0 fee2 efbf 032b 0c40 13a6 cb3f
000002f0: 1ab4 f53f 9ea1 87bf dd49 39bf c505 9bbf
00000300: 6d57 45bf 54c6 803e e07e 8dbf ca6d 553e
00000310: 40fc 123e 1ec1 833f d2c3 103e 20ab 4ebe
00000320: 96c7 efbd 50c6 9abd 13c2 623d e1bd abbe
00000330: 4afa 4bbf 3cdc 88be 5b55 3bbf 23e1 eebd
00000340: cf29 5ebe dede 1ebe 418d 25bf 2b35 f3be
00000350: 07ec dfbe 66bb e1be 0f88 1bbf 61d1 2abf
00000360: 7d60 a6bb 21f0 1dbf 48b8 0abf 7d8b 28bf
00000370: 6357 d93d 708a 11bf 4e09 b7bf 6b98 cc3d
00000380: 6add 92bf bfd1 94bf 4719 b0bf f95f cdbe
00000390: 8045 97bf 0b0b 4cbd 0619 92bf 9ad3 25bf
000003a0: 56c6 22bf 155b eabe 1cd9 e1bf d47a ddbf
000003b0: 1aef dcbf f5cb adbf 25a6 a3bf 8427 adbf
000003c0: 6a95 2f3f cd1b a93e ec79 813f 34d6 07bf
000003d0: c697 d3be 116f d7be 55d1 a0be 49b1 8a3f
000003e0: 1209 7bbe b67b d6be 6730 c33f 8cee 37bf
000003f0: 23ca ecbc f872 a6bd 9ced 18be fdd7 e53e
-0.6665127 -0.6741844 -0.45793152 0.036920097 0.5695672 0.25216767 -0.15889154 0.090783566
0.19562519 -2.5255165 -2.6332362 -2.6348562 -2.191418 -2.1181364 -2.2455485 -0.71420544
-0.64957386 -0.81935316 0.9964082 0.94943935 0.9527148 0.79727 0.9698084 0.65204024
0.025065051 0.5810396 -0.06721919 1.0803103 1.0272088 1.0532025 0.8710691 1.0994056
0.73848784 -0.10447184 0.6414606 -0.24202257 -0.70098144 -0.9614816 -1.3747811 0.13251022
-0.01323929 0.17747782 0.10446273 -0.99467367 0.07776672 -0.40906474 -0.6746038 -0.33013642
-0.13334855 -0.024837378 0.053371068 -0.25328675 -0.6905558 -0.09646944 -1.123779 -0.98991555
-1.1447879 0.2558006 0.4423702 0.36057633 1.7152712 1.6854324 1.5055298 -1.8651079
-1.4069898 -1.5577438 -1.100233 0.19738796 -0.8594138 -0.6149498 0.7517131 -0.44392875
-1.7893552 -2.0243556 -2.077439 -1.6185063 -1.7210226 -1.7991608 -0.9046835 -0.5558172
0.0889403 -2.0993285 -2.086042 -1.9085208 -0.09489378 0.3244596 0.7771149 0.40759227
-0.3929863 0.0147126885 -0.5674952 -1.1471113 -1.0138292 -1.0410297 -0.21819137 -1.4178737
-1.790697 -0.093485266 -1.2022762 -0.7540004 -1.309859 -0.066627055 -1.0037829 -0.13701178
-1.4211717 -0.43382928 -0.30020696 -1.363731 -0.5637951 -0.6607433 -0.75786024 -1.2836151
-1.1244019 -1.2146326 -0.9596073 -0.44036362 -0.7756542 -0.11737418 -0.39004052 -0.4485703
-0.09453607 -0.3181627 -0.031103985 -0.5661917 -0.911575 -0.37288985 -0.39620033 -1.0630105
-0.96936125 -0.79527575 0.14559089 -0.7725469 -0.86693907 0.40401655 -0.5858711 0.17728448
0.04121778 -0.05253569 0.5300011 0.7071602 0.7309364 -0.8988073 -0.6486982 -0.8462923
-0.39823422 -0.35754275 -0.7114338 -1.3426901 0.88307756 -2.0523617 -2.2311668 1.3141731
-2.4104323 0.17092833 0.55567354 0.6958812 0.8824152 1.4721566 1.3785926 -0.13475932
-0.43984556 -0.37123975 0.10273034 -0.11094999 0.7909094 -1.4060872 -1.0757061 -1.5927873
0.051405046 -0.009067 -0.4739622 0.024006976 -0.02420589 -0.19410226 0.40394247 0.4401155
0.35216352 0.047226936 0.108111806 0.09253259 -0.61584044 -0.4089454 -0.3015519 -2.2017736
-2.0190914 -1.8741148 2.1901252 1.5910057 1.9195588 -1.0596197 -0.7237833 -1.2111136
-0.77086526 0.25151312 -1.1054344 0.20842662 0.14354038 1.029331 0.141372 -0.20182467
-0.1170799 -0.07557356 0.055360865 -0.33543304 -0.79678786 -0.26730525 -0.7317712 -0.11664035
-0.21695636 -0.15514705 -0.6466866 -0.475015 -0.43734762 -0.44088286 -0.60754484 -0.66725737
-0.0050774203 -0.6169453 -0.5418744 -0.6583784 0.10612371 -0.56851864 -1.4299715 0.09990009
-1.147382 -1.162651 -1.3757714 -0.40112284 -1.1818085 -0.04981522 -1.1413887 -0.64776003
-0.63583887 -0.45772615 -1.7644382 -1.7303109 -1.7260468 -1.3577868 -1.2785078 -1.3527684
0.6858736 0.33029023 1.0115333 -0.53061223 -0.4132673 -0.42076924 -0.31409708 1.0835353
-0.24515179 -0.4189126 1.5249146 -0.7184837 -0.02890498 -0.08127397 -0.14934391 0.44891348

conv2.bias f4 [64]
00000000: 7a11 c1c0 4ad5 8b3f 4ab1 78c0 71dc 4ec0
00000010: 42ca 8cc0 bb6f 483e e3c1 0bc0 4aa0 a33f
00000020: 229c 80bf 8b5b 0e40 6ac0 3dc0 56f5 c4bf
00000030: e26a d6bf ac1b 37bf 6deb b7be 78a1 88bf
00000040: 4361 8fbf 5979 0c40 9593 493f 9f23 61bf
00000050: db97 f6bf 4b7f 4fc0 950e e23f b173 91c0
00000060: 3faf aebf 34d9 40c0 6ed2 9e3f 4fcd d33e
00000070: 092a 5cc0 cf7b d53f 2bfb 8ec0 0d87 21bf
00000080: 0062 ff3f 9cab cd3f c9df 05bf 48c7 803f
00000090: 5573 a7bd 681f 71c0 ac23 09c0 b258 a9bf
000000a0: e091 0bc0 d760 10be 7174 62c0 7be7 74c0
000000b0: b482 f7bf 72ce 10c0 9d02 843f 8ec8 f3be
000000c0: 7d1e a83f 27f0 bcbf 368d 7d40 c746 fc3e
000000d0: 3eeb a3bf 0858 90be f589 0fc0 0bf4 683f
000000e0: 4749 e1bf c67e 70c0 b7e0 6b40 6e1a 5cc0
000000f0: b83d a8c0 0d57 a53f 52e5 41c0 ffcf e93d
-6.0333834 1.0924466 -3.8858209 -3.2322047 -4.3996897 0.19573872 -2.183709 1.2783291
-1.0047648 2.2243373 -2.964869 -1.538737 -1.6751368 -0.715266 -0.35921803 -1.0674276
-1.1201557 2.1949065 0.7874082 -0.8794498 -1.9265093 -3.2421443 1.76607 -4.5453725
-1.3647231 -3.013257 1.2407968 0.41367576 -3.4400656 1.6678408 -4.46816 -0.63096696
1.9951782 1.6067996 -0.52294594 1.0060816 -0.08176295 -3.767542 -2.1428022 -1.3230193
-2.1807785 -0.14099441 -3.538357 -3.8266284 -1.9336762 -2.2626004 1.0313298 -0.4761395
1.3134304 -1.4760789 3.9617438 0.4927275 -1.2806165 -0.28192163 -2.2427952 0.9099738
-1.7600487 -3.7577376 3.6855905 -3.4391131 -5.257534 1.2917191 -3.0296216 0.11416625

bnorm1.weight f4 [32]
00000000: 8254 0940 0ede e73e 6786 093f 8003 083f
00000010: c25e 5840 304f b73f 2afa f23e a7ff 943f
00000020: 14bb ac3f 0f6c 853f 8644 fa3f 5f62 5b40
00000030: c017 a13f f9d1 5c3f dd34 cc3f 7773 093f
00000040: a418 3140 68c9 e63f 1137 df3f 34a9 c93e
00000050: 74d2 0940 6895 0640 6ea6 793f 099d 8c3f
00000060: ef0d cf3f 8f53 1540 9b27 383f 7f34 7f3f
00000070: 007a 573f abfa c43e 7f8b 3540 4caa 993f
2.145783 0.45286602 0.53720707 0.5313034 3.3807836 1.4321041 0.47456485 1.1640519
1.3494592 1.0423602 1.9552162 3.427879 1.2585373 0.8625789 1.5953633 0.5369181
2.767129 1.8030214 1.743868 0.39386904 2.15347 2.102869 0.97519577 1.0985423
1.6176127 2.333225 0.71935433 0.9968948 0.8417053 0.38472494 2.8366392 1.2005095

bnorm1.bias f4 [32]
00000000: 1edb 833f dea8 003e f0e1 59be 3beb 92be
00000010: 360c be3f 2526 3e3f 268e f63d 8ef4 033f
00000020: d4ec 1c3f 07a5 103f fccd 4e3f d108 983f
00000030: 9bc4 403f 28f1 e03e 948f 603f f17b ba3e
00000040: dd85 aa3f 2a6e 0b3f c401 393f 6a05 c73d
00000050: fe06 bb3f 37d8 af3e 312c fb3e c463 d33e
00000060: 31f7 fb3e 8546 283f 7651 463e cef1 0d3f
00000070: 7b8e e33e ad9b 6d3e 02dc c23e c20f 283f
1.0301244 0.12564418 -0.21277595 -0.28695092 1.4847476 0.74276954 0.120388314 0.51545036
0.6129887 0.5650181 0.8078306 1.187769 0.75299996 0.43933988 0.8771908 0.36422685
1.3322102 0.5446497 0.7226832 0.097178295 1.4611509 0.34344646 0.49057153 0.41287053
0.4921203 0.65732604 0.19367012 0.5544709 0.4444464 0.23203917 0.38058478 0.65649045

bnorm1.running_mean f4 [32]
00000000: 34e2 9b3f 0400 0000 b914 4840 132d 4640
00000010: b436 d33f a49a 3640 bd33 a33f c928 ae3f
00000020: 2764 fd3f 64c3 f83f 9553 933f 8258 ba3f
00000030: 485e c63f 2111 2640 6152 ab3f a1cb 5140
00000040: 7d62 563f e1ff e83f 084b 453f 2c03 8b40
00000050: 2a57 4440 52f1 373d 8ead b23f 2fc2 983e
00000060: f32f 983f 68d3 0d3f e5a7 b23f 340f 2140
00000070: a0fc 7640 33a8 6540 959e 133e 5376 2540
1.2178407 6e-45 3.1262648 3.096501 1.6501069 2.8531885 1.2750164 1.3606197
1.9796189 1.9434628 1.1509882 1.455826 1.5497522 2.5947955 1.3384515 3.2780535
0.8374403 1.8203088 0.77067614 4.344137 3.06782 0.044907875 1.3959215 0.2983565
1.1889633 0.55400705 1.3957487 2.516553 3.859169 3.588391 0.14415963 2.585347

bnorm1.running_var f4 [32]
00000000: d2a9 0241 0400 0000 667b 4841 d032 5841
00000010: 9f89 6d41 dfb9 6941 3502 9b40 d0fa b740
00000020: ba24 2e41 7d8e 1d41 11f1 1e41 d981 4b41
00000030: 5fb4 df40 3b1c 2441 d09d 4241 7e84 9441
00000040: c7b8 6c40 5e9a 4941 9889 7c40 cdb0 0242
00000050: 8544 5f41 54fa 313e ca15 2e41 a2d6 6f3f
00000060: 2d0e 1941 d5af 7e40 9a6b 3041 d2f7 eb40
00000070: a2aa d941 5ec5 9a41 4aeb 2b3f 08ec a441
8.16646 6e-45 12.530127 13.512405 14.846099 14.607879 4.8440194 5.7493668
10.883966 9.847287 9.933854 12.719201 6.990768 10.256892 12.163528 18.564693
3.698778 12.600187 3.945898 32.672657 13.954228 0.17380649 10.88032 0.9368688
9.565961 3.979482 11.02627 7.3740015 27.208317 19.34637 0.671559 20.61525

bnorm2.weight f4 [64]
00000000: d38f 7040 17fd 1c3f cd9b 2a40 56af 3a40
00000010: 33dc 6d40 0d51 ee3f ddcf 1d40 cbf0 223f
00000020: 6cee b23f 6572 613f 4112 2440 c41e 1a40
00000030: 13f7 4c3f bcef e83f 9337 2b40 58b9 0c40
00000040: 5526 793f b74b f13f 0ec0 1c3f 8df2 1c40
00000050: bf73 3a40 c27f 6040 5e1c 1d3f 02b4 ff3e
00000060: 05bb 0440 8300 6c40 7c88 c63f 829c 8d3f
00000070: b2a3 5340 67cf 0e40 2ace 7d40 f028 103f
00000080: 88c8 133f 70e5 c63f 6d4d 0240 1099 5f3f
00000090: 3b59 fd3e a15e 2b3f c41e 583f ca8d 4f3f
000000a0: e84f 1d40 b00a b33f 57c3 4940 6f45 6340
000000b0: 4c18 983f abdc 703f 4811 853f 981d 4740
000000c0: 437a cc3f 92f7 0c40 72f7 c23f d596 d73f
000000d0: 3c7b e73e 9fec 1640 b559 2540 79b6 0840
000000e0: 2c3b 2e40 9fe3 3740 57f8 1a3f 787f 2d40
000000f0: db17 7640 7d6c 263f b4dc 5040 5a35 3040
3.7587783 0.61323684 2.6657593 2.9169517 3.716565 1.8618485 2.465812 0.6364867
1.397901 0.8806518 2.5636141 2.4081278 0.80064505 1.8198161 2.675267 2.1988125
0.97324115 1.8851231 0.6123055 2.4523041 2.9133146 3.5077977 0.6137141 0.49942023
2.0739148 3.6875312 1.5510402 1.1063387 3.3068662 2.2314088 3.9657083 0.56312466
0.5772786 1.5538769 2.0359757 0.8734293 0.4948214 0.6694127 0.84421945 0.8107573
2.458002 1.3987637 3.1525476 3.551113 1.1882415 0.9408671 1.0395899 3.1111813
1.5974811 2.2026105 1.5231764 1.6842905 0.45211208 2.3581922 2.5836003 2.1361372
2.7223616 2.873268 0.60535187 2.710905 3.845206 0.6500929 3.2634706 2.7532563

bnorm2.bias f4 [64]
00000000: 027d 77bc 7772 303d 23a1 d3bd 5052 1e3d
00000010: a169 6f3e 416a 373e 73e8 913d ecf4 a3bd
00000020: 7d7f 10bb 8e69 3a3e 35ef e4bc 552d eebc
00000030: 6d8d 5a3d 01e2 e23d eaa6 b6bb ef56 45bd
00000040: 0640 003e 09cb 253d c980 e33c d05f b73d
00000050: 9812 0d3c a812 0a3e 02f3 603e 66be 933c
00000060: 4142 233d 4e7e 3cbd d3fb 753e 69a9 963d
00000070: 6755 abbd 1c82 a1bd e36d 653e 7b45 c0bd
00000080: 5c22 73bd b2e0 ab3c 0529 fa3c 7d33 e03c
00000090: 4790 04be d8f3 3f3d 49dd f1bc d061 e7bc
000000a0: 49d5 443d e794 da3d e2ce 553d 39f4 ac3d
000000b0: d3b1 ef3c c6bc be3b ac9c c63c 4331 263d
000000c0: b876 11bd 03aa 4a3e 50c4 3e3d e77c e23d
000000d0: 99d2 073d a2c4 1c3e 5823 da3d 7434 433d
000000e0: bb39 263d 115b b7bd 8db2 323e b8ea d2bd
000000f0: 096b 623d 769a d13d 8a6a 693d 4027 09bd
-0.015105488 0.043077912 -0.10333469 0.038652718 0.23380138 0.17911626 0.07124414 -0.080056995
-0.0022048645 0.18204328 -0.027946094 -0.02907435 0.05335753 0.11078263 -0.005574097 -0.04817861
0.12524423 0.040476833 0.02777137 0.08953822 0.00861039 0.1348368 0.219677 0.018035125
0.039858107 -0.04601889 0.24021845 0.07356531 -0.083658986 -0.078861445 0.224052 -0.09388252
-0.05935894 0.020981167 0.030537138 0.027368302 -0.12945662 0.046863407 -0.029524462 -0.028244883
0.048054967 0.10672932 0.052199252 0.08445019 0.029259598 0.0058208434 0.024244629 0.040574323
-0.03551361 0.19791417 0.046573937 0.110589795 0.033159826 0.15309384 0.106512725 0.047657445
0.0405824 -0.089529164 0.17450924 -0.10298675 0.055277858 0.10234539 0.05698637 -0.033484697

bnorm2.running_mean f4 [64]
00000000: 4157 cb3d 087a f540 dfff b63e c38b 3e3f
00000010: cf19 dd3f c38f 0340 f97b 033f 1d68 b33f
00000020: 4afe c940 8cfa 4241 733b 443f ff9f dc3e
00000030: 7cc5 d23f 4781 ad3f 0baf b53f 25ec c13f
00000040: fe87 b33f ce09 1841 e904 9b3f c7f0 7e40
00000050: 03c6 3240 dca4 b13f 86b6 7341 bb8e c540
00000060: 2c92 2e40 599d 663e 4a74 3540 435f ae40
00000070: 84d3 163e 2e6f ca40 aea3 5f3f dac4 0b3f
00000080: bd89 c140 1447 0441 69ed 8c40 9032 fa3f
00000090: f977 1340 1448 f83e baab 8941 5a92 a93e
000000a0: 9c5e 1c40 1396 3d40 31eb 653e 718a c53e
000000b0: 020b 2641 ea0a bd3f df95 cc40 274b 7f3f
000000c0: 6eee dd40 5e5e a83f 5ab6 4c41 7734 3b40
000000d0: c1fa 1840 4ec0 873f ee93 c73f 6e61 0d40
000000e0: a2e1 ed3e 0e83 883e 6214 7c41 78be 3d3f
000000f0: acdb e23d bbee 3141 b947 073f 4d1b 8040
0.09928752 7.6711464 0.3574209 0.7443201 1.7273501 2.0556495 0.5136104 1.4016148
6.312291 12.186169 0.7665321 0.43090817 1.6466517 1.3555077 1.4194044 1.515019
1.4025877 9.502394 1.2110873 3.983446 2.7933357 1.3878436 15.232061 6.173673
2.7276716 0.22520961 2.8352227 5.4491286 0.14729124 6.3260717 0.8735913 0.54597247
6.0480638 8.267353 4.4039807 1.954668 2.3041975 0.4849249 17.20885 0.3311947
2.4432745 2.9622848 0.22453 0.38582185 10.377687 1.4768956 6.393295 0.9972405
6.935355 1.3153799 12.794519 2.9250772 2.3903048 1.0605562 1.559202 2.2090716
0.46461207 0.26662487 15.754976 0.7411876 0.11077055 11.120784 0.52843815 4.0033326

bnorm2.running_var f4 [64]
00000000: ead8 4840 6d7f 6e43 d034 9241 b21d c341
00000010: 4044 9542 0178 a842 1e9d 8741 d694 9641
00000020: 8c0f 7943 5f7c 0e44 b0bd d141 c93e 7641
00000030: 7874 0142 6a1f 4542 d994 2e42 d76e 8942
00000040: 6562 af41 3230 e543 a426 8a41 f455 4043
00000050: aaf2 1f43 fb21 3042 ffd7 ec43 9647 8043
00000060: 2bb4 1743 0ffa 1641 56eb 9642 843c 7143
00000070: 709c 9940 70d5 6543 4cf9 0e42 dce3 cd40
00000080: 4b86 0843 89d7 f543 0ef7 b443 f85a 0442
00000090: 1ee2 1b42 38f5 fd40 f80b 6e44 20aa 5140
000000a0: 73cc 2643 a1fb e242 ea5c 0741 8ded 7e41
000000b0: 6a61 2044 114f dc41 e2c3 4543 190a 0042
000000c0: 1120 e043 c27b 8442 bb8e 3f44 e8a2 5443
000000d0: 78f4 7442 4fae f341 441e 6742 b73d 9442
000000e0: c1b9 5741 2e8a 2741 5e62 f643 51d2 3942
000000f0: e702 4640 993c 9143 ace3 3a41 1a9f 4543
3.1382394 238.49776 18.275787 24.3895 74.6333 84.23438 16.951717 18.822674
249.06073 569.9433 26.21762 15.390328 32.36374 49.280678 43.64536 68.716484
21.923044 458.37653 17.268867 192.33575 159.9479 44.033184 473.68747 256.55927
151.70378 9.436049 75.45964 241.23639 4.8003464 229.83374 35.743454 6.434065
136.52458 491.68387 361.9301 33.088837 38.970818 7.936184 952.187 3.2760086
166.79863 113.49146 8.460184 15.932996 641.5221 27.538607 197.76517 32.00986
448.25052 66.241714 766.23016 212.63635 61.23874 30.460112 57.779556 74.12054
13.48285 10.471235 492.7685 46.455387 3.0939271 290.47342 11.680584 197.62149

linear.weight f4 [8, 64]
00000000: aa51 88bf cc93 283e 6199 8cbe cd35 67bf
00000010: a7f5 8abf aa4b 81bf 0392 72bf 80c0 f7be
00000020: fc45 5a3e 88cc ae3e a92c a73e 032d 00bc
00000030: 710a 90bb f2b8 92bd b910 d43d 1052 923e
00000040: e922 1c3f 409c 69bf b0df 15bf 2754 1a3f
00000050: 7ba1 763c 7665 9bbf ba0a 9d3e ae3e 303e
00000060: 8fd0 3dbf b0db abbf 49ee 623e 160e ef3e
00000070: fd0d afbe a00b 453d e9b5 c6bf a090 0abf
00000080: d217 49bd 3663 cabe ac0b 6fbf 1029 95be
00000090: fe8f 753e 4410 28bf 514a 253e 5b92 91be
000000a0: 6977 9c3e 323c db3e 906e 62bf 5990 9cbf
000000b0: b047 67be 1a28 1d3f 6813 5d3e 2f17 453f
000000c0: 6ddf 0abf 02cd 86bf e2ce 4fbf d29e ccbe
000000d0: 2c7c 883e 6e60 0e3f e36e edbd cd87 033f
000000e0: bd54 34bf 9642 c0be 68db 893d 3e1e ccbe
000000f0: b769 c3bf cb70 823e d59a f43e 5dc8 ea3e
00000100: 27c5 80be ac86 823d 178d 073e 41be 72bf
00000110: 3794 36bf 4b32 c8bf ae4a 4fbf 9f7e 80bd
00000120: 3d2c b13e fe2b 66bf 7d18 693f 08e4 203f
00000130: f2b4 183f 57ef 583f 6111 26bf 7c6f a33e
00000140: 2f82 19bf 59d9 99bf 871e 953e d25c bf3e
00000150: 9f37 1b3e d695 6fbf e7ea 203e 3d35 1cbe
00000160: 69b5 42bf 60e7 79bf 137f 04c0 dd57 25bf
00000170: 3c77 a4bf 32fe e0be f8e0 7abf d52a 91bd
00000180: c6b9 953e 52c6 553f 988f 2bbf 21f5 583f
00000190: 63ff 04be 4d57 263f f970 a3be beba 78be
000001a0: c0da 42bf c6b6 52bf 3d6d 453f b185 2ebf
000001b0: 9631 14be df9c 03bf 9a12 d43e 9714 2f3f
000001c0: 4602 45bf 5b2e 4cbf f28d 68bf 074b 88bf
000001d0: 728f 26be 81d8 b9bf 1b99 9c3f 7c6e 133f
000001e0: cd18 18be e9d0 6abe f81b 823e 9409 31be
000001f0: dcb3 53bf 38d6 d0bc 72a1 1b3f 6ef6 4bbe
00000200: 4b89 513e aaf8 78bf f00d 94be 399f 50bf
00000210: 4973 a8bf 7b97 813e 7e46 97bf c0a0 78be
00000220: 97c0 b93e 1670 be3e 705e 24bf a77b 49bf
00000230: d8cc e5bf 60fd a1bf 96e2 763f a7c7 e0be
00000240: 1604 0a3f 172b e73e 3920 52bf cf57 ebbf
00000250: f7f7 c3bf f42b 25be 9d0a d3bf 9cba efbe
00000260: 70e3 d13e 1db4 43bf 29ec e33e d143 0a3f
00000270: 9425 713d 6727 843f b6ee b2bf 609b 91be
00000280: 9fe6 68bf 6437 51bf 70a0 89bf 3b3e 3dbf
00000290: 1930 8d3e 6421 07bf bf78 913f 14f9 c6be
000002a0: e908 94bf 2d95 2a3f 0b6c eb3d 137e 51bf
000002b0: ddac 7a3f 4171 bf3e 98fd babf 4b7b d63e
000002c0: 23bb 1d3f e2a6 a0bf 579d 2bbf 2dc1 9ebe
000002d0: bfe9 04bf b494 7c3f 822e 903e 6139 713f
000002e0: e6ca 9b3f 7958 57be aff9 bebf 4d7d 40bf
000002f0: 81e2 9bbe bd60 aebf bcb6 b2bf 6211 5bbe
00000300: 7a51 123f 8883 063f 7548 c8be f64d 52bf
00000310: d0bf 8c3f 3657 01bf 7072 99be 5818 423f
00000320: 5483 bcbe de88 3fbf e7c5 8bbd de14 60bf
00000330: fac9 8bbd 72af 003f 4bed d8be f007 003f
00000340: e2cd 043e b7d0 81bf 3d07 4e3e 6707 833e
00000350: fa0d 4d3f ba03 3ebe 764b f93e 0674 073f
00000360: 3391 59bf c622 443f 4098 f4be 3853 ffbe
00000370: 11ab dfbf a996 9fbe c31a b43f 3ce2 3d3f
00000380: 845a ff3e 55aa 853d 0e3c efbe 42bc d8bd
00000390: e298 4d3f 9372 353e 3fd5 57be 005d 1c3f
000003a0: a367 fa3e 96e4 9fbe 5280 a53f 236f 1cbf
000003b0: 62d4 12bf 47ec 663e 9143 4c3e 8e6a 09bf
000003c0: 0646 60be 7467 e2be 1373 09bf 2f25 8bbf
000003d0: 39e4 143f 431c b1bf 33df df3e 2883 80bf
000003e0: 8770 9cbe 84ef adbe 5823 943e aa19 7abe
000003f0: 0fa3 8c3f d39a eb3e 82da 3b3f a92b 443e
-1.0649922 0.1646263 -0.2746077 -0.9031647 -1.0856217 -1.0101216 -0.94754046 -0.48389053
0.2131576 0.3414042 0.3265126 -0.007823232 -0.004395776 -0.07164182 0.10354752 0.28578234
0.6099077 -0.91254044 -0.58544445 0.60284656 0.015053148 -1.2140338 0.30672246 0.1721141
-0.7414636 -1.3426418 0.22161211 0.46690434 -0.3419036 0.04810679 -1.5524265 -0.5412693
-0.049094982 -0.39528817 -0.93377185 -0.2913289 0.2398071 -0.6564982 0.1614163 -0.28431973
0.30559853 0.42819363 -0.88449955 -1.2231551 -0.2258594 0.61389315 0.21589434 0.769885
-0.5424717 -1.0531313 -0.81175053 -0.3996492 0.26657236 0.5561589 -0.115934156 0.5137909
-0.704418 -0.375508 0.067313015 -0.39866823 -1.5266637 0.2547668 0.47774377 0.4585599
-0.25150415 0.06373343 0.13237415 -0.94821554 -0.7131991 -1.5640348 -0.8097333 -0.06274151
0.34604064 -0.89910877 0.9105299 0.6284795 0.596511 0.84740204 -0.6487027 0.31920993
-0.5996427 -1.2019454 0.29124853 0.37375504 0.15157937 -0.93588006 0.15714608 -0.15254684
-0.7605806 -0.97618675 -2.070256 -0.64587194 -1.2848887 -0.43943936 -0.97999525 -0.07088248
0.29243296 0.8350574 -0.6701598 0.8474904 -0.12988047 0.6497696 -0.3192213 -0.24289986
-0.76115036 -0.8231014 0.7711981 -0.68172747 -0.1447204 -0.5141124 0.41420442 0.6839079
-0.76956594 -0.7975823 -0.9084159 -1.0647897 -0.16265658 -1.4519197 1.2234224 0.5759046
-0.14853211 -0.22931255 0.25411963 -0.1728881 -0.8269632 -0.025492772 0.6079322 -0.19918224
0.2046253 -0.9725443 -0.28916883 -0.81492954 -1.3160182 0.25310883 -1.1818388 -0.24280071
0.36279747 0.3719489 -0.642066 -0.78704304 -1.7953138 -1.2655449 0.9643949 -0.43902323
0.53912485 0.45150062 -0.8208042 -1.8386172 -1.5310048 -0.16130048 -1.6487614 -0.4682206
0.40993834 -0.76446706 0.44516113 0.5400973 0.058873728 1.0324525 -1.3979099 -0.28438854
-0.909769 -0.81725144 -1.0752087 -0.7392308 0.27575758 -0.52785325 1.1364974 -0.38861907
-1.1565219 0.66633874 0.11495217 -0.81833 0.9792002 0.37391093 -1.4608641 0.4189094
0.6161367 -1.2550929 -0.67036957 -0.31006756 -0.5191917 0.986644 0.28160483 0.9422818
1.2171295 -0.21029843 -1.4919947 -0.75191194 -0.30446246 -1.3623272 -1.3962016 -0.2139335
0.57155573 0.5254445 -0.3911778 -0.8215021 1.0996037 -0.505237 -0.2997012 0.75818396
-0.36818945 -0.7481822 -0.06824856 -0.8753184 -0.06825633 0.5026771 -0.4236854 0.5001211
0.12969163 -1.014182 0.20119949 0.25591585 0.8009945 -0.18556109 0.48690385 0.5291141
-0.8498718 0.7661556 -0.47772408 -0.49868178 -1.747408 -0.31169632 1.4070667 0.7417333
0.49873745 0.06526629 -0.46725506 -0.10582782 0.80311406 0.17719488 -0.2107744 0.61079407
0.48907194 -0.31229085 1.2929785 -0.6110708 -0.5735532 0.2255107 0.1994765 -0.53678215
-0.21901712 -0.44219553 -0.53691214 -1.0870723 0.5816074 -1.383675 0.43724975 -1.0040026
-0.30554602 -0.33971798 0.28933215 -0.24423853 1.0987262 0.4601656 0.7338029 0.1915728

linear.bias f4 [8]
00000000: f4c9 333f 9fcb 573e 5d97 9fbf 756b 933e
00000010: c5de 61bf 6c24 923e 9079 183e b4b1 053e
0.7023003 0.21073769 -1.2468067 0.2879292 -0.88230544 0.28543413 0.14890122 0.1305607

exp_avg f4 [32, 3, 3, 3]
00000000: 690d 98bb 1cf6 d8bb 8ef5 edbb 4495 6dbb
00000010: a097 dfbb 67b6 f9bb 340d a4bb 5aff 07bc
00000020: 6378 0ebc 054e 28bb b4aa 96bb a648 a7bb
00000030: d62e aaba 669d 97bb 73a7 afbb 73b0 14bb
00000040: aea8 babb 2864 c8bb 0325 bdba 5bdb 68bb
00000050: e6c5 81bb 7379 2039 6929 58bb c200 83bb
00000060: 1293 8cb9 700d 7bbb eba6 8abb 0400 0000
00000070: 0400 0000 0400 0000 0400 0000 0400 0000
00000080: 0400 0000 0400 0000 0400 0000 0400 0000
00000090: 0400 0080 0400 0080 0400 0080 0400 0080
000000a0: 0400 0080 0400 0080 0400 0080 0400 0080
000000b0: 0400 0080 0400 0080 0400 0080 0400 0080
000000c0: 0400 0080 0400 0080 0400 0080 0400 0080
000000d0: 0400 0080 0400 0080 b804 11b9 f40b cbb8
000000e0: db3d 89b9 73ef bdb8 5a8d f2b8 abee bab9
000000f0: 1d38 f3b9 ffee deb9 75f2 b0b9 2df6 1ab9
00000100: e68f 5db8 68c0 18b9 50ba a8b8 c6a2 3cb8
00000110: 0d08 77b9 8d6c ddb9 82b3 abb9 93a8 4ab9
00000120: e3a5 4eba 75ca 34ba 25f1 3fba db7d 42ba
00000130: 08ec 37ba 9f7e 5dba 9457 8bba 1fb0 7dba
00000140: 2f23 55ba cd94 ddb9 a26f dbb9 f115 0eba
00000150: 504f d2b9 98e7 fcb9 4e19 24ba 9df6 32ba
00000160: ea7c 36ba 7ed6 11ba 7a94 acb9 d492 93b9
00000170: 9e5d a9b9 ed62 93b9 78ad a8b9 8a52 ceb9
00000180: 9c33 0aba 034f 04ba 2163 a3b9 61c4 10bb
00000190: fad7 0bbb a9fb 09bb f4e9 0ebb 3fea 0fbb
000001a0: c3fe 0fbb 2f85 1ebb ae8b 1bbb ecec 0cbb
000001b0: 78ca c83a 2696 a73a 096e 7f3a 7a56 cd3a
000001c0: 099b c73a 3f10 933a 0832 a33a 4d53 c93a
000001d0: 67e9 ad3a 58c8 d93a 8bfa ae3a 9759 8f3a
000001e0: 9787 be3a 0fe9 9c3a 832e 5d3a d998 863a
000001f0: 60ac 913a e797 563a 7c34 cfb9 d2dd 2fba
00000200: e5d1 29ba e389 7fba f8d1 a3ba 5596 97ba
00000210: f4c0 a4ba 8d5a 96ba b8fc 98ba 3918 0bbb
00000220: 6854 22bb e12f 51bb 4796 03bb e91b 29bb
00000230: d9d1 5cbb ab25 e9ba eb09 25bb 7ae2 59bb
00000240: 4a34 6dbb bb7d 82bb 59db 98bb a7fa 6bbb
00000250: aebe 87bb 5f50 a1bb e499 64bb bd07 88bb
00000260: 1024 a1bb 28fc 65bb 47b3 76bb e520 8fbb
00000270: 8220 67bb 755f 7ebb da7a 96bb b2c4 65bb
00000280: d1bc 80bb e208 96bb c3be 64ba 8a40 62ba
00000290: 9167 83ba 0672 34ba eb64 4fba 8a34 5fba
000002a0: 4853 31ba aa71 43ba 9b17 4bba 5616 98ba
000002b0: a1e6 98ba c247 acba 1f05 6fba 79cc 87ba
000002c0: 20b5 92ba 8875 56ba 6ad6 6dba db3d 80ba
000002d0: 57ce 00ba 5807 04ba a94c 22ba ce5b 3eb9
000002e0: a8a0 a0b9 be2f bfb9 9c12 1fb8 f6b6 06b9
000002f0: dfbc 36b9 3597 c6ba 31c1 c4ba 6260 00bb
00000300: e687 a6ba 51e4 b5ba f179 48ba 710c 8fba
00000310: acf8 99ba d18d 2fba e422 89bb 30ea 87bb
00000320: dae4 8fbb 2cd6 7cbb 92f3 7bbb 5d02 53bb
00000330: 8525 74bb 0d8d 73bb 4bed 4dbb 3735 8cbb
00000340: 037b 8bbb 436c 90bb e3c2 78bb de79 73bb
00000350: c8f4 4cbb ef03 6abb 5fd3 67bb c583 44bb
00000360: 5afa ee39 1cde e539 8c2b 7b39 626b 1f3a
00000370: 6232 2e3a 5c43 bf39 2861 af39 49fa c739
00000380: 66d6 7939 837e 983a 1265 893a a276 4e3a
00000390: 8a34 b13a 0e97 a43a 917c 6d3a 2be3 8f3a
000003a0: 4fab 853a 7175 5b3a 7f91 043b 9916 003b
000003b0: 6bcb d93a 8a10 123b 8006 093b 8510 df3a
000003c0: 6b0d fc3a 3f5c ef3a 7911 d23a 9e3a 31bb
000003d0: c19a 22bb f99b 10bb 18a6 25bb ae16 0fbb
000003e0: d11b 06bb 7690 0abb 7fb2 f5ba e9f9 fbba
000003f0: a7c6 49bb 0a7b 41bb 44e4 31bb 0a28 3ebb
-0.0046402705 -0.0066211354 -0.0072619384 -0.00362523 -0.006823495 -0.007620621 -0.0050064567 -0.008300627
-0.008695695 -0.002568127 -0.004597986 -0.005105096 -0.0012983929 -0.0046269177 -0.0053605377 -0.002268818
-0.0056963777 -0.006115455 -0.0014430586 -0.0035531137 -0.003960359 0.00015304032 -0.0032983667 -0.003997893
-0.00026812457 -0.003830757 -0.004231324 6e-45 6e-45 6e-45 6e-45 6e-45
6e-45 6e-45 6e-45 6e-45 -6e-45 -6e-45 -6e-45 -6e-45
-6e-45 -6e-45 -6e-45 -6e-45 -6e-45 -6e-45 -6e-45 -6e-45
-6e-45 -6e-45 -6e-45 -6e-45 -6e-45 -6e-45 -0.00013830035 -9.682021e-05
-0.00026176762 -9.056823e-05 -0.00011565788 -0.00035654506 -0.0004639038 -0.00042521206 -0.0003374998 -0.00014778292
-5.2824522e-05 -0.00014567527 -8.045568e-05 -4.4974287e-05 -0.00023558755 -0.0004223328 -0.00032749405 -0.0001932702
-0.00078829954 -0.00068966235 -0.0007322005 -0.00074192666 -0.00070160674 -0.0008449349 -0.0010630959 -0.0009677428
-0.0008130548 -0.0004226327 -0.00041854108 -0.00054201396 -0.00040113414 -0.00048237736 -0.0006259874 -0.00068269094
-0.00069613627 -0.0005563273 -0.0003291702 -0.0002814742 -0.00032303942 -0.0002811173 -0.000321727 -0.00039352878
-0.00052719726 -0.0005047174 -0.0003116364 -0.0022089707 -0.002133845 -0.0021054542 -0.0021806927 -0.002195969
-0.0021971918 -0.002418827 -0.0023734379 -0.002150352 0.001531913 0.0012785837 0.00097438745 0.0015666031
0.0015228699 0.0011220052 0.0012450824 0.0015359909 0.0013268412 0.0016615493 0.0013349814 0.0010936734
0.0014536259 0.0011971312 0.0008437412 0.0010268941 0.0011113994 0.00081860874 -0.0003952122 -0.0006708774
-0.0006478115 -0.0009748025 -0.0012498489 -0.0011565188 -0.0012569712 -0.0011471078 -0.0011671996 -0.0021224155
-0.0024769548 -0.0031919407 -0.0020078586 -0.002580399 -0.0033694415 -0.0017787715 -0.0025182914 -0.0033246563
-0.0036194497 -0.0039822734 -0.00466482 -0.0036007555 -0.004142604 -0.004922911 -0.0034881765 -0.004151313
-0.004917629 -0.0035092924 -0.0037643479 -0.004367935 -0.003526718 -0.003881422 -0.0045922818 -0.0035059866
-0.0039287587 -0.0045786956 -0.00087259355 -0.0008630833 -0.0010025372 -0.0006883446 -0.0007911461 -0.0008514604
-0.0006764424 -0.0007455597 -0.0007747353 -0.0011603336 -0.0011665412 -0.0013143944 -0.00091178896 -0.001036062
-0.0011192895 -0.00081809657 -0.00090727827 -0.0009784059 -0.00049135595 -0.00050364947 -0.0006191233 -0.00018154012
-0.00030637276 -0.0003646593 -3.7925885e-05 -0.00012847394 -0.00017427233 -0.0015151264 -0.0015011189 -0.0019588699
-0.0012705296 -0.0013877248 -0.0007647565 -0.0010913742 -0.0011747084 -0.00066968525 -0.0041850675 -0.0041477904
-0.004391295 -0.0038579805 -0.003844474 -0.0032197454 -0.0037253809 -0.003716293 -0.0031421955 -0.0042788046
-0.0042566075 -0.004407437 -0.0037957958 -0.0037151496 -0.003127383 -0.003570791 -0.003537379 -0.0029985767
0.00045581424 0.00043843768 0.00023953448 0.000608137 0.0006645081 0.00036480546 0.00033450988 0.00038142715
0.0002382636 0.0011634383 0.0010482392 0.0007875954 0.0013519686 0.0012557225 0.00090593944 0.0010977736
0.0010198149 0.0008371687 0.0020228324 0.001954472 0.0016616409 0.002228769 0.0020908415 0.0017018473
0.0019230073 0.0018261744 0.0016026936 -0.0027042995 -0.0024811479 -0.0022065623 -0.0025276002 -0.0021833587
-0.0020463357 -0.0021143234 -0.0018745213 -0.0019224259 -0.0030788572 -0.00295228 -0.0027144114 -0.0029015564

exp_avg_sq f4 [32, 3, 3, 3]
00000000: c6d5 8639 3be4 8939 5104 8c39 9310 8239
00000010: be52 8d39 c5a2 9039 cb86 7c39 9a40 9039
00000020: a0ff 9439 cd8f 2339 af94 2939 c46e 2d39
00000030: ffbe 1c39 69d7 2b39 61ce 3139 60d6 1539
00000040: 9777 2e39 8ec8 3639 72ef 0e39 488d 0f39
00000050: c430 1239 c631 0b39 934c 1139 c700 1639
00000060: e1d1 0839 8bd9 1339 38cd 1939 81f2 9b34
00000070: 0624 9734 cc68 9734 c049 9b34 0846 9a34
00000080: 7acc 9c34 3489 9a34 9159 9a34 4213 9f34
00000090: 73aa 6834 c5e1 6534 e82d 6034 69c0 6534
000000a0: 430a 6734 4176 6334 9f82 5e34 e4f3 6134
000000b0: 86c7 6334 b583 8b34 9c63 8c34 d364 8a34
000000c0: ce9c 8a34 b76f 8b34 89c3 8934 be4a 8934
000000d0: 0a42 8a34 2b68 8934 c005 6038 f542 5038
000000e0: c00a 3f38 6c3b 6038 73fd 4f38 6ee1 3c38
000000f0: 4a53 6138 b017 5438 d1bd 4238 6a49 3a38
00000100: 7827 2e38 ac3b 2038 c1fd 3a38 a0ad 2d38
00000110: 10a3 1c38 8da0 3b38 97e9 3138 e3a8 2238
00000120: 810f 7b38 9bc4 6d38 a2db 5e38 f4a4 7b38
00000130: ef46 6d38 4a11 5b38 adfd 7b38 0232 7138
00000140: 008d 6038 ef4e 7d38 d950 6b38 452d 5738
00000150: d3e4 7c38 9d82 6a38 307e 5438 23e7 7e38
00000160: 6173 6f38 f7ff 5b38 3f97 5538 36f9 4538
00000170: 230a 3538 032b 5638 5811 4538 2b91 3038
00000180: acb4 5638 e3c8 4938 8a07 3838 5c18 9538
00000190: e67b 8d38 36ad 8538 1b02 9538 ce2e 8d38
000001a0: 3197 8338 c45b 9538 744e 8f38 0c5d 8638
000001b0: d4c7 263a 9d11 273a 990a 213a 40d8 263a
000001c0: 26e1 263a 4ee8 233a 3b71 263a 5c24 283a
000001d0: 2b19 243a 5de3 dd39 ee1e dd39 9d53 d239
000001e0: 2696 dd39 3157 db39 95af d439 5daa db39
000001f0: 5301 dc39 5721 d539 7d3c 0e3a 4a66 0d3a
00000200: a9ab 073a c177 0d3a 2d24 0c3a e487 083a
00000210: 32c1 0c3a f3c0 0c3a 2a4f 093a c102 6a39
00000220: 547c 6939 f953 6d39 84ca 6c39 e2b0 6d39
00000230: 673f 7339 1ee5 6f39 84d7 7439 38b7 7839
00000240: 39d0 5439 b650 5539 a49f 5a39 6a25 5839
00000250: 3774 5939 9304 6039 815f 5b39 0ef9 6039
00000260: ad15 6639 b900 a239 d0a6 9e39 d827 9d39
00000270: 904d a239 aad0 9d39 5d6b 9c39 812b a039
00000280: 0b47 9e39 a0ef 9d39 6c0b 5938 1b6e 5738
00000290: fd31 5638 02cf 5238 2ea3 5138 e822 4e38
000002a0: 2090 5038 5fdf 5038 b978 4d38 30e8 ce37
000002b0: 63d6 cd37 7568 cf37 84ad bb37 1f0c ba37
000002c0: 2f11 b837 a1be b737 ca56 b837 3b44 b537
000002d0: 65e4 8a37 8c4c 8a37 36d4 8c37 17a6 6937
000002e0: b77e 6a37 ec0e 6737 e250 6537 9fac 6a37
000002f0: 4718 6237 c292 7c39 e962 7a39 7896 7439
00000300: a897 7639 ba8e 7639 f3a6 7439 6001 7439
00000310: 424a 7239 285f 7439 8597 5139 c281 4e39
00000320: 3542 4b39 dc1a 4b39 caf4 4b39 69d8 4a39
00000330: a8dd 4939 17ff 4839 c60e 4d39 742f 1b39
00000340: f81f 1839 6543 2839 45e7 2239 4759 2a39
00000350: ed86 2139 2422 3339 68bb 2c39 042a 2539
00000360: 18c6 8d38 fd5e 9038 6882 8e38 4faa 8538
00000370: 140d 8938 8d26 8838 6578 8238 ff89 8638
00000380: ba14 8538 c397 0038 9d41 fc37 352e f337
00000390: d5d5 c837 d868 c537 7058 c137 2a84 b737
000003a0: 6936 bd37 24ba b537 1da1 2a38 2b8d 1f38
000003b0: 6992 1938 daee 0338 17e1 f037 d549 e937
000003c0: ef40 ed37 9a4b e637 fba8 da37 fc31 1839
000003d0: b617 1c39 952e 1c39 16d6 1039 1ea3 1039
000003e0: 555a 1539 f150 0d39 067a 0d39 a077 1039
000003f0: 7dc8 fe38 6262 0239 54f3 0139 ebf4 f038
0.00025717745 0.0002630072 0.00026706097 0.0002480788 0.00026955263 0.00027587093 0.00024082807 0.00027513952
0.00028419215 0.00015598461 0.00016172485 0.00016539829 0.00014948471 0.00016388077 0.00016956918 0.00014289608
0.00016638484 0.00017431585 0.00013631376 0.00013690174 0.00013941812 0.00013274615 0.00013856804 0.00014305404
0.00013048157 0.00014100054 0.00014667667 2.9047445e-07 2.8152152e-07 2.8202192e-07 2.892466e-07 2.873569e-07
2.920604e-07 2.8784564e-07 2.8749903e-07 2.963007e-07 2.1668693e-07 2.1409421e-07 2.0878326e-07 2.1397285e-07
2.1517285e-07 2.1184043e-07 2.0722881e-07 2.1043485e-07 2.1213609e-07 2.5986597e-07 2.6149507e-07 2.5777862e-07
2.5818593e-07 2.597205e-07 2.566051e-07 2.557262e-07 2.5752553e-07 2.559403e-07 5.3411117e-05 4.9653423e-05
4.554796e-05 5.3461103e-05 4.958869e-05 4.503264e-05 5.372175e-05 5.05668e-05 4.6429985e-05 4.4414228e-05
4.152159e-05 3.8202546e-05 4.4582182e-05 4.1408115e-05 3.7345162e-05 4.47338e-05 4.2417636e-05 3.8781098e-05
5.9857502e-05 5.6688306e-05 5.3133474e-05 5.9996688e-05 5.6571265e-05 5.222977e-05 6.0079317e-05 5.750545e-05
5.353708e-05 6.0393413e-05 5.610366e-05 5.1302155e-05 6.029459e-05 5.591159e-05 5.066226e-05 6.0773582e-05
5.7089495e-05 5.2452055e-05 5.0924016e-05 4.7200556e-05 4.3163203e-05 5.1061634e-05 4.6984613e-05 4.2096868e-05
5.118984e-05 4.8109225e-05 4.387604e-05 7.109411e-05 6.746482e-05 6.374197e-05 7.105266e-05 6.732122e-05
6.2747284e-05 7.121966e-05 6.8333844e-05 6.406949e-05 0.0006362174 0.0006373169 0.0006143242 0.0006364621
0.0006365947 0.00062525726 0.000634927 0.00064141094 0.0006259854 0.00042321804 0.0004217545 0.00040116618
0.00042264274 0.00041835898 0.0004056661 0.00041897866 0.00041962657 0.00040651366 0.00054258836 0.00053939654
0.00051754207 0.0005396568 0.0005345967 0.00052082376 0.00053693645 0.0005369328 0.00052379316 0.00022317005
0.00022266927 0.00022633364 0.00022582157 0.00022667975 0.00023197905 0.00022878169 0.00023349939 0.00023719377
0.00020295464 0.0002034333 0.00020849571 0.00020613303 0.00020738026 0.00021364009 0.00020921046 0.00021455085
0.00021942584 0.00030899586 0.00030260393 0.0002997506 0.00030956836 0.0003010084 0.0002983463 0.0003054999
0.0003018904 0.00030123908 5.174747e-05 5.136254e-05 5.106813e-05 5.0260693e-05 4.9981456e-05 4.9146736e-05
4.972529e-05 4.9799095e-05 4.898824e-05 2.4665234e-05 2.4537736e-05 2.4724965e-05 2.2372937e-05 2.2178572e-05
2.1942511e-05 2.1904068e-05 2.1974924e-05 2.1608654e-05 1.6557236e-05 1.6486527e-05 1.6788119e-05 1.3926553e-05
1.397699e-05 1.3772147e-05 1.3668296e-05 1.3987678e-05 1.3476302e-05 0.00024087264 0.00023878705 0.00023325707
0.00023516885 0.00023513558 0.00023331847 0.00023270166 0.00023106582 0.00023305102 0.00019988239 0.0001969403
0.00019384253 0.00019369595 0.0001945078 0.0001934484 0.00019251427 0.00019168515 0.00019555827 0.0001479963
0.00014507759 0.00016046835 0.00015535679 0.00016245722 0.0001540442 0.00017083489 0.00016473013 0.00015751278
6.760302e-05 6.884148e-05 6.795378e-05 6.373657e-05 6.535105e-05 6.492166e-05 6.221308e-05 6.415322e-05
6.345795e-05 3.0658917e-05 3.0071295e-05 2.8989374e-05 2.3941431e-05 2.3533052e-05 2.3048575e-05 2.1876844e-05
2.2555892e-05 2.166356e-05 4.0681207e-05 3.8040027e-05 3.6614398e-05 3.145528e-05 2.8715045e-05 2.7810145e-05
2.8282839e-05 2.7453341e-05 2.6066313e-05 0.0001451447 0.00014886152 0.00014894672 0.00013812663 0.00013793676
0.00014243399 0.00013476961 0.00013492265 0.00013777474 0.00012149008 0.00012434417 0.00012393045 0.00011489711

exp_avg f4 [32]
00000000: a391 043c 0400 0000 4a28 d0b9 5244 b1b9
00000010: d850 67ba c796 673a cb70 923a 726e 66ba
00000020: 3f46 1d3b f3be 2bb7 7286 f23a b966 803b
00000030: 617f d9ba e638 283b 990b 783a 5ef7 d2b9
00000040: 2a26 b93b f118 4ab9 1fbf 873b 903c 01ba
00000050: b7f1 8dba 2a80 eb39 a0b6 5eb9 0c49 8cba
00000060: bb12 2c3b 01b2 7e3b 2eeb 9639 72c9 dc39
00000070: 3614 bfb9 63fa 6639 f6b2 f03b 8bab e439
0.008091363 6e-45 -0.0003970287 -0.00033810973 -0.00088239973 0.0008834418 0.0011172531 -0.00087902613
0.0023998169 -1.0236853e-05 0.0018503203 0.0039184955 -0.0016593748 0.002566868 0.00094621774 -0.00040238624
0.0056503015 -0.00019273513 0.0041426565 -0.0004929984 -0.0010829483 0.00044918183 -0.00021239603 -0.0010702922
0.0026256281 0.0038863423 0.00028785452 0.00042111758 -0.00036445417 0.00022027786 0.0073455526 0.00043615358

exp_avg_sq f4 [32]
00000000: b1cf 5a39 858f 0c34 0acd 0c36 8870 3436
00000010: a4cb 033a 3a2d d538 6879 a037 92c6 2539
00000020: 26e1 0d38 4eb4 a238 fb49 0b39 f73c ff39
00000030: f21f f637 472d 8238 5e0b 9038 c2b8 ca37
00000040: 1edf 963a 29cb 0d39 4033 a838 6408 f736
00000050: 73e4 8038 f3ec fd38 b826 4d38 dbc7 1438
00000060: 3f86 cb38 7c6d 4539 8e53 2b38 c259 2538
00000070: eadf d437 cf90 6a36 5a7f 9339 5aa7 7e37
0.00020867471 1.3090728e-07 2.0980974e-06 2.6887592e-06 0.0005027598 0.000101650556 1.913002e-05 0.000158096
3.3826705e-05 7.758346e-05 0.00013283633 0.00048682812 2.9340361e-05 6.2073166e-05 6.8685724e-05 2.4166311e-05
0.0011510586 0.00013522491 8.02041e-05 7.3621504e-06 6.1460676e-05 0.00012108115 4.891187e-05 3.547208e-05
9.7047996e-05 0.0001882817 4.0847393e-05 3.942266e-05 2.5376637e-05 3.4953007e-06 0.0002813291 1.5178544e-05
